…
0, grad_clip=5, learning_rate=0.025, max_depth=100, max_width=32, min_depth=5, min_width=16, model_path='saved_models', momentum=0.9, report_freq=1, save='Rubric-Kmnist_cutout-20240327-102817', search=True, seed=20, target_acc=100.0, target_acc_tolerance=0.1, valid_size=0.5, weight_decay=0.0003, width_resolution=8)
2024-03-27 10:28:17,993 #############################################################################
2024-03-27 10:28:17,993 INITIALIZING DEPTH AND WIDTH SEARCH...
2024-03-27 10:28:17,993 RUNNING MACRO SEARCH FIRST...
2024-03-27 10:28:20,685 NetworkMix(
  (stem): Sequential(
    (0): Conv2d(1, 4, kernel_size=(3, 3), stride=(1, 1), padding=(1, 1), bias=False)
    (1): BatchNorm2d(4, eps=1e-05, momentum=0.1, affine=True, track_running_stats=True)
  )
  (mixlayers): ModuleList(
    (0): SepConv(
      (op): Sequential(
        (0): ReLU()
        (1): Conv2d(4, 4, kernel_size=(3, 3), stride=(1, 1), padding=(1, 1), groups=4, bias=False)
        (2): Conv2d(4, 16, kernel_size=(1, 1), stride=(1, 1), bias=False)
        (3): BatchNorm2d(16, eps=1e-05, momentum=0.1, affine=True, track_running_stats=True)
      )
    )
    (1): SepConv(
      (op): Sequential(
        (0): ReLU()
        (1): Conv2d(16, 16, kernel_size=(3, 3), stride=(2, 2), padding=(1, 1), groups=16, bias=False)
        (2): Conv2d(16, 32, kernel_size=(1, 1), stride=(1, 1), bias=False)
        (3): BatchNorm2d(32, eps=1e-05, momentum=0.1, affine=True, track_running_stats=True)
      )
    )
    (2): SepConv(
      (op): Sequential(
        (0): ReLU()
        (1): Conv2d(32, 32, kernel_size=(3, 3), stride=(2, 2), padding=(1, 1), groups=32, bias=False)
        (2): Conv2d(32, 48, kernel_size=(1, 1), stride=(1, 1), bias=False)
        (3): BatchNorm2d(48, eps=1e-05, momentum=0.1, affine=True, track_running_stats=True)
      )
    )
    (3): SepConv(
      (op): Sequential(
        (0): ReLU()
        (1): Conv2d(48, 48, kernel_size=(3, 3), stride=(2, 2), padding=(1, 1), groups=48, bias=False)
        (2): Conv2d(48, 64, kernel_size=(1, 1), stride=(1, 1), bias=False)
        (3): BatchNorm2d(64, eps=1e-05, momentum=0.1, affine=True, track_running_stats=True)
      )
    )
    (4): SepConv(
      (op): Sequential(
        (0): ReLU()
        (1): Conv2d(64, 64, kernel_size=(3, 3), stride=(1, 1), padding=(1, 1), groups=64, bias=False)
        (2): Conv2d(64, 64, kernel_size=(1, 1), stride=(1, 1), bias=False)
        (3): BatchNorm2d(64, eps=1e-05, momentum=0.1, affine=True, track_running_stats=True)
      )
    )
  )
  (global_pooling): AdaptiveAvgPool2d(output_size=1)
  (classifier): Linear(in_features=64, out_features=10, bias=True)
)
2024-03-27 10:28:20,686 MODEL DETAILS
2024-03-27 10:28:20,686 Model Depth 5 Model Width 16
2024-03-27 10:28:20,686 Model Layers [0 0 0 0 0] Model Kernels [3 3 3 3 3]
2024-03-27 10:28:20,687 Training epochs 2
2024-03-27 10:28:20,688 Model Parameters = 0.011898MB
2024-03-27 10:28:20,688 Training Model...
2024-03-27 10:28:32,498 epoch 0 lr 6.250000e-03
2024-03-27 10:28:32,498 train_acc 53.799999
…
2024-03-27 10:28:43,725 Test Accuracy of    na: 72% (2214/3034)
2024-03-27 10:28:43,725 Test Accuracy of    ha: 70% (2109/2988)
2024-03-27 10:28:43,725 Test Accuracy of    ma: 73% (2212/3026)
2024-03-27 10:28:43,725 Test Accuracy of    ya: 83% (2444/2912)
2024-03-27 10:28:43,726 Test Accuracy of    re: 77% (2335/3017)
2024-03-27 10:28:43,726 Test Accuracy of    wo: 72% (2212/3060)
2024-03-27 10:28:43,726 
Test Accuracy (Overall): 75.356667% (22607/30000)
2024-03-27 10:28:43,726 Baseline Train Acc 74.833336 Baseline Val Acc 75.406670
2024-03-27 10:28:43,730 NetworkMix(
  (stem): Sequential(
    (0): Conv2d(1, 4, kernel_size=(3, 3), stride=(1, 1), padding=(1, 1), bias=False)
    (1): BatchNorm2d(4, eps=1e-05, momentum=0.1, affine=True, track_running_stats=True)
  )
  (mixlayers): ModuleList(
    (0): SepConv(
      (op): Sequential(
        (0): ReLU()
        (1): Conv2d(4, 4, kernel_size=(3, 3), stride=(1, 1), padding=(1, 1), groups=4, bias=False)
        (2): Conv2d(4, 16, kernel_size=(1, 1), stride=(1, 1), bias=False)
        (3): BatchNorm2d(16, eps=1e-05, momentum=0.1, affine=True, track_running_stats=True)
      )
    )
    (1): SepConv(
      (op): Sequential(
        (0): ReLU()
        (1): Conv2d(16, 16, kernel_size=(3, 3), stride=(2, 2), padding=(1, 1), groups=16, bias=False)
        (2): Conv2d(16, 32, kernel_size=(1, 1), stride=(1, 1), bias=False)
        (3): BatchNorm2d(32, eps=1e-05, momentum=0.1, affine=True, track_running_stats=True)
      )
    )
    (2): SepConv(
      (op): Sequential(
        (0): ReLU()
        (1): Conv2d(32, 32, kernel_size=(3, 3), stride=(1, 1), padding=(1, 1), groups=32, bias=False)
        (2): Conv2d(32, 32, kernel_size=(1, 1), stride=(1, 1), bias=False)
        (3): BatchNorm2d(32, eps=1e-05, momentum=0.1, affine=True, track_running_stats=True)
      )
    )
    (3): SepConv(
      (op): Sequential(
        (0): ReLU()
        (1): Conv2d(32, 32, kernel_size=(3, 3), stride=(2, 2), padding=(1, 1), groups=32, bias=False)
        (2): Conv2d(32, 48, kernel_size=(1, 1), stride=(1, 1), bias=False)
        (3): BatchNorm2d(48, eps=1e-05, momentum=0.1, affine=True, track_running_stats=True)
      )
    )
    (4): SepConv(
      (op): Sequential(
        (0): ReLU()
        (1): Conv2d(48, 48, kernel_size=(3, 3), stride=(2, 2), padding=(1, 1), groups=48, bias=False)
        (2): Conv2d(48, 64, kernel_size=(1, 1), stride=(1, 1), bias=False)
        (3): BatchNorm2d(64, eps=1e-05, momentum=0.1, affine=True, track_running_stats=True)
      )
    )
    (5): SepConv(
      (op): Sequential(
        (0): ReLU()
        (1): Conv2d(64, 64, kernel_size=(3, 3), stride=(1, 1), padding=(1, 1), groups=64, bias=False)
        (2): Conv2d(64, 64, kernel_size=(1, 1), stride=(1, 1), bias=False)
        (3): BatchNorm2d(64, eps=1e-05, momentum=0.1, affine=True, track_running_stats=True)
      )
    )
  )
  (global_pooling): AdaptiveAvgPool2d(output_size=1)
  (classifier): Linear(in_features=64, out_features=10, bias=True)
)
2024-03-27 10:28:43,730 #############################################################################
2024-03-27 10:28:43,730 Moving to Next Candidate Architecture...
2024-03-27 10:28:43,730 MODEL DETAILS
2024-03-27 10:28:43,730 Model Depth 6 Model Width 16
2024-03-27 10:28:43,730 Model Layers [0 0 0 0 0 0] Model Kernels [3 3 3 3 3 3]
2024-03-27 10:28:43,731 Total number of epochs 2
…
2024-03-27 10:29:02,447 Test Accuracy of    ma: 80% (2424/3026)
2024-03-27 10:29:02,447 Test Accuracy of    ya: 84% (2475/2912)
2024-03-27 10:29:02,447 Test Accuracy of    re: 75% (2273/3017)
2024-03-27 10:29:02,447 Test Accuracy of    wo: 85% (2631/3060)
2024-03-27 10:29:02,447 
Test Accuracy (Overall): 80.150000% (24045/30000)
2024-03-27 10:29:02,448 Candidate Train Acc 80.493332 Candidate Val Acc 80.706665
2024-03-27 10:29:02,448 Train Acc Diff 5.659996 Val Acc Diff 5.299995
2024-03-27 10:29:02,449 Highest Train Acc 80.493332 Highest Val Acc 80.706665
2024-03-27 10:29:02,453 NetworkMix(
  (stem): Sequential(
    (0): Conv2d(1, 4, kernel_size=(3, 3), stride=(1, 1), padding=(1, 1), bias=False)
    (1): BatchNorm2d(4, eps=1e-05, momentum=0.1, affine=True, track_running_stats=True)
  )
  (mixlayers): ModuleList(
    (0): SepConv(
      (op): Sequential(
        (0): ReLU()
        (1): Conv2d(4, 4, kernel_size=(3, 3), stride=(1, 1), padding=(1, 1), groups=4, bias=False)
        (2): Conv2d(4, 16, kernel_size=(1, 1), stride=(1, 1), bias=False)
        (3): BatchNorm2d(16, eps=1e-05, momentum=0.1, affine=True, track_running_stats=True)
      )
    )
    (1): SepConv(
      (op): Sequential(
        (0): ReLU()
        (1): Conv2d(16, 16, kernel_size=(3, 3), stride=(2, 2), padding=(1, 1), groups=16, bias=False)
        (2): Conv2d(16, 32, kernel_size=(1, 1), stride=(1, 1), bias=False)
        (3): BatchNorm2d(32, eps=1e-05, momentum=0.1, affine=True, track_running_stats=True)
      )
    )
    (2): SepConv(
      (op): Sequential(
        (0): ReLU()
        (1): Conv2d(32, 32, kernel_size=(3, 3), stride=(1, 1), padding=(1, 1), groups=32, bias=False)
        (2): Conv2d(32, 32, kernel_size=(1, 1), stride=(1, 1), bias=False)
        (3): BatchNorm2d(32, eps=1e-05, momentum=0.1, affine=True, track_running_stats=True)
      )
    )
    (3): SepConv(
      (op): Sequential(
        (0): ReLU()
        (1): Conv2d(32, 32, kernel_size=(3, 3), stride=(2, 2), padding=(1, 1), groups=32, bias=False)
        (2): Conv2d(32, 48, kernel_size=(1, 1), stride=(1, 1), bias=False)
        (3): BatchNorm2d(48, eps=1e-05, momentum=0.1, affine=True, track_running_stats=True)
      )
    )
    (4): SepConv(
      (op): Sequential(
        (0): ReLU()
        (1): Conv2d(48, 48, kernel_size=(3, 3), stride=(1, 1), padding=(1, 1), groups=48, bias=False)
        (2): Conv2d(48, 48, kernel_size=(1, 1), stride=(1, 1), bias=False)
        (3): BatchNorm2d(48, eps=1e-05, momentum=0.1, affine=True, track_running_stats=True)
      )
    )
    (5): SepConv(
      (op): Sequential(
        (0): ReLU()
        (1): Conv2d(48, 48, kernel_size=(3, 3), stride=(2, 2), padding=(1, 1), groups=48, bias=False)
        (2): Conv2d(48, 64, kernel_size=(1, 1), stride=(1, 1), bias=False)
        (3): BatchNorm2d(64, eps=1e-05, momentum=0.1, affine=True, track_running_stats=True)
      )
    )
    (6): SepConv(
      (op): Sequential(
        (0): ReLU()
        (1): Conv2d(64, 64, kernel_size=(3, 3), stride=(1, 1), padding=(1, 1), groups=64, bias=False)
        (2): Conv2d(64, 64, kernel_size=(1, 1), stride=(1, 1), bias=False)
        (3): BatchNorm2d(64, eps=1e-05, momentum=0.1, affine=True, track_running_stats=True)
      )
    )
  )
  (global_pooling): AdaptiveAvgPool2d(output_size=1)
  (classifier): Linear(in_features=64, out_features=10, bias=True)
)
2024-03-27 10:29:02,454 #############################################################################
2024-03-27 10:29:02,454 Moving to Next Candidate Architecture...
2024-03-27 10:29:02,454 MODEL DETAILS
2024-03-27 10:29:02,454 Model Depth 7 Model Width 16
2024-03-27 10:29:02,454 Model Layers [0 0 0 0 0 0 0] Model Kernels [3 3 3 3 3 3 3]
2024-03-27 10:29:02,454 Total number of epochs 2
…
2024-03-27 10:29:21,230 Test Accuracy of    ma: 73% (2217/3026)
2024-03-27 10:29:21,230 Test Accuracy of    ya: 87% (2546/2912)
2024-03-27 10:29:21,230 Test Accuracy of    re: 83% (2512/3017)
2024-03-27 10:29:21,230 Test Accuracy of    wo: 84% (2572/3060)
2024-03-27 10:29:21,230 
Test Accuracy (Overall): 81.383333% (24415/30000)
2024-03-27 10:29:21,230 Candidate Train Acc 80.826668 Candidate Val Acc 81.236664
2024-03-27 10:29:21,230 Train Acc Diff 0.333336 Val Acc Diff 0.529999
2024-03-27 10:29:21,230 Highest Train Acc 80.826668 Highest Val Acc 81.236664
2024-03-27 10:29:21,235 NetworkMix(
  (stem): Sequential(
    (0): Conv2d(1, 4, kernel_size=(3, 3), stride=(1, 1), padding=(1, 1), bias=False)
    (1): BatchNorm2d(4, eps=1e-05, momentum=0.1, affine=True, track_running_stats=True)
  )
  (mixlayers): ModuleList(
    (0): SepConv(
      (op): Sequential(
        (0): ReLU()
        (1): Conv2d(4, 4, kernel_size=(3, 3), stride=(1, 1), padding=(1, 1), groups=4, bias=False)
        (2): Conv2d(4, 16, kernel_size=(1, 1), stride=(1, 1), bias=False)
        (3): BatchNorm2d(16, eps=1e-05, momentum=0.1, affine=True, track_running_stats=True)
      )
    )
    (1): SepConv(
      (op): Sequential(
        (0): ReLU()
        (1): Conv2d(16, 16, kernel_size=(3, 3), stride=(1, 1), padding=(1, 1), groups=16, bias=False)
        (2): Conv2d(16, 16, kernel_size=(1, 1), stride=(1, 1), bias=False)
        (3): BatchNorm2d(16, eps=1e-05, momentum=0.1, affine=True, track_running_stats=True)
      )
    )
    (2): SepConv(
      (op): Sequential(
        (0): ReLU()
        (1): Conv2d(16, 16, kernel_size=(3, 3), stride=(2, 2), padding=(1, 1), groups=16, bias=False)
        (2): Conv2d(16, 32, kernel_size=(1, 1), stride=(1, 1), bias=False)
        (3): BatchNorm2d(32, eps=1e-05, momentum=0.1, affine=True, track_running_stats=True)
      )
    )
    (3): SepConv(
      (op): Sequential(
        (0): ReLU()
        (1): Conv2d(32, 32, kernel_size=(3, 3), stride=(1, 1), padding=(1, 1), groups=32, bias=False)
        (2): Conv2d(32, 32, kernel_size=(1, 1), stride=(1, 1), bias=False)
        (3): BatchNorm2d(32, eps=1e-05, momentum=0.1, affine=True, track_running_stats=True)
      )
    )
    (4): SepConv(
      (op): Sequential(
        (0): ReLU()
        (1): Conv2d(32, 32, kernel_size=(3, 3), stride=(2, 2), padding=(1, 1), groups=32, bias=False)
        (2): Conv2d(32, 48, kernel_size=(1, 1), stride=(1, 1), bias=False)
        (3): BatchNorm2d(48, eps=1e-05, momentum=0.1, affine=True, track_running_stats=True)
      )
    )
    (5): SepConv(
      (op): Sequential(
        (0): ReLU()
        (1): Conv2d(48, 48, kernel_size=(3, 3), stride=(1, 1), padding=(1, 1), groups=48, bias=False)
        (2): Conv2d(48, 48, kernel_size=(1, 1), stride=(1, 1), bias=False)
        (3): BatchNorm2d(48, eps=1e-05, momentum=0.1, affine=True, track_running_stats=True)
      )
    )
    (6): SepConv(
      (op): Sequential(
        (0): ReLU()
        (1): Conv2d(48, 48, kernel_size=(3, 3), stride=(2, 2), padding=(1, 1), groups=48, bias=False)
        (2): Conv2d(48, 64, kernel_size=(1, 1), stride=(1, 1), bias=False)
        (3): BatchNorm2d(64, eps=1e-05, momentum=0.1, affine=True, track_running_stats=True)
      )
    )
    (7): SepConv(
      (op): Sequential(
        (0): ReLU()
        (1): Conv2d(64, 64, kernel_size=(3, 3), stride=(1, 1), padding=(1, 1), groups=64, bias=False)
        (2): Conv2d(64, 64, kernel_size=(1, 1), stride=(1, 1), bias=False)
        (3): BatchNorm2d(64, eps=1e-05, momentum=0.1, affine=True, track_running_stats=True)
      )
    )
  )
  (global_pooling): AdaptiveAvgPool2d(output_size=1)
  (classifier): Linear(in_features=64, out_features=10, bias=True)
)
2024-03-27 10:29:21,235 #############################################################################
2024-03-27 10:29:21,235 Moving to Next Candidate Architecture...
2024-03-27 10:29:21,235 MODEL DETAILS
2024-03-27 10:29:21,235 Model Depth 8 Model Width 16
2024-03-27 10:29:21,235 Model Layers [0 0 0 0 0 0 0 0] Model Kernels [3 3 3 3 3 3 3 3]
2024-03-27 10:29:21,236 Total number of epochs 2
…
2024-03-27 10:35:44,760 Test Accuracy of    ya: 96% (2807/2912)
2024-03-27 10:35:44,760 Test Accuracy of    re: 94% (2845/3017)
2024-03-27 10:35:44,760 Test Accuracy of    wo: 95% (2931/3060)
2024-03-27 10:35:44,760 
Test Accuracy (Overall): 94.286667% (28286/30000)
2024-03-27 10:35:44,761 Candidate Train Acc 94.546669 Candidate Val Acc 94.186668
2024-03-27 10:35:44,761 Increasing CHANNELS in WIDTH block...
2024-03-27 10:35:44,761 Highest Train Acc 94.436668 Highest Val Acc 94.360001
2024-03-27 10:35:44,761 Train Acc Diff 0.110001 Val Acc Diff -0.173332
2024-03-27 10:35:44,768 NetworkMix(
  (stem): Sequential(
    (0): Conv2d(1, 5, kernel_size=(3, 3), stride=(1, 1), padding=(1, 1), bias=False)
    (1): BatchNorm2d(5, eps=1e-05, momentum=0.1, affine=True, track_running_stats=True)
  )
  (mixlayers): ModuleList(
    (0): SepConv(
      (op): Sequential(
        (0): ReLU()
        (1): Conv2d(5, 5, kernel_size=(3, 3), stride=(1, 1), padding=(1, 1), groups=5, bias=False)
        (2): Conv2d(5, 20, kernel_size=(1, 1), stride=(1, 1), bias=False)
        (3): BatchNorm2d(20, eps=1e-05, momentum=0.1, affine=True, track_running_stats=True)
      )
    )
    (1-2): 2 x SepConv(
      (op): Sequential(
        (0): ReLU()
        (1): Conv2d(20, 20, kernel_size=(3, 3), stride=(1, 1), padding=(1, 1), groups=20, bias=False)
        (2): Conv2d(20, 20, kernel_size=(1, 1), stride=(1, 1), bias=False)
        (3): BatchNorm2d(20, eps=1e-05, momentum=0.1, affine=True, track_running_stats=True)
      )
    )
    (3): SepConv(
      (op): Sequential(
        (0): ReLU()
        (1): Conv2d(20, 20, kernel_size=(3, 3), stride=(2, 2), padding=(1, 1), groups=20, bias=False)
        (2): Conv2d(20, 40, kernel_size=(1, 1), stride=(1, 1), bias=False)
        (3): BatchNorm2d(40, eps=1e-05, momentum=0.1, affine=True, track_running_stats=True)
      )
    )
    (4-6): 3 x SepConv(
      (op): Sequential(
        (0): ReLU()
        (1): Conv2d(40, 40, kernel_size=(3, 3), stride=(1, 1), padding=(1, 1), groups=40, bias=False)
        (2): Conv2d(40, 40, kernel_size=(1, 1), stride=(1, 1), bias=False)
        (3): BatchNorm2d(40, eps=1e-05, momentum=0.1, affine=True, track_running_stats=True)
      )
    )
    (7): SepConv(
      (op): Sequential(
        (0): ReLU()
        (1): Conv2d(40, 40, kernel_size=(3, 3), stride=(2, 2), padding=(1, 1), groups=40, bias=False)
        (2): Conv2d(40, 60, kernel_size=(1, 1), stride=(1, 1), bias=False)
        (3): BatchNorm2d(60, eps=1e-05, momentum=0.1, affine=True, track_running_stats=True)
      )
    )
    (8-9): 2 x SepConv(
      (op): Sequential(
        (0): ReLU()
        (1): Conv2d(60, 60, kernel_size=(3, 3), stride=(1, 1), padding=(1, 1), groups=60, bias=False)
        (2): Conv2d(60, 60, kernel_size=(1, 1), stride=(1, 1), bias=False)
        (3): BatchNorm2d(60, eps=1e-05, momentum=0.1, affine=True, track_running_stats=True)
      )
    )
    (10): SepConv(
      (op): Sequential(
        (0): ReLU()
        (1): Conv2d(60, 60, kernel_size=(3, 3), stride=(2, 2), padding=(1, 1), groups=60, bias=False)
        (2): Conv2d(60, 80, kernel_size=(1, 1), stride=(1, 1), bias=False)
        (3): BatchNorm2d(80, eps=1e-05, momentum=0.1, affine=True, track_running_stats=True)
      )
    )
    (11-13): 3 x SepConv(
      (op): Sequential(
        (0): ReLU()
        (1): Conv2d(80, 80, kernel_size=(3, 3), stride=(1, 1), padding=(1, 1), groups=80, bias=False)
        (2): Conv2d(80, 80, kernel_size=(1, 1), stride=(1, 1), bias=False)
        (3): BatchNorm2d(80, eps=1e-05, momentum=0.1, affine=True, track_running_stats=True)
      )
    )
  )
  (global_pooling): AdaptiveAvgPool2d(output_size=1)
  (classifier): Linear(in_features=80, out_features=10, bias=True)
)
2024-03-27 10:35:44,769 #############################################################################
2024-03-27 10:35:44,769 Moving to Next Candidate Architecture...
2024-03-27 10:35:44,769 MODEL DETAILS
2024-03-27 10:35:44,769 Model Depth 14 Model Width 20
2024-03-27 10:35:44,769 Model Layers [0 0 0 0 0 0 0 0 0 0 0 0 0 0] Model Kernels [3 3 3 3 3 3 3 3 3 3 3 3 3 3]
…
2024-03-27 10:58:50,616 Test Accuracy of    ya: 98% (2856/2912)
2024-03-27 10:58:50,616 Test Accuracy of    re: 96% (2923/3017)
2024-03-27 10:58:50,616 Test Accuracy of    wo: 97% (2984/3060)
2024-03-27 10:58:50,616 
Test Accuracy (Overall): 96.310000% (28893/30000)
2024-03-27 10:58:50,616 Candidate Train Acc 97.196671 Candidate Val Acc 96.633331
2024-03-27 10:58:50,617 Increasing CHANNELS in WIDTH block...
2024-03-27 10:58:50,617 Highest Train Acc 97.346664 Highest Val Acc 96.766670
2024-03-27 10:58:50,617 Train Acc Diff -0.149994 Val Acc Diff -0.133339
2024-03-27 10:58:50,627 NetworkMix(
  (stem): Sequential(
    (0): Conv2d(1, 6, kernel_size=(3, 3), stride=(1, 1), padding=(1, 1), bias=False)
    (1): BatchNorm2d(6, eps=1e-05, momentum=0.1, affine=True, track_running_stats=True)
  )
  (mixlayers): ModuleList(
    (0): SepConv(
      (op): Sequential(
        (0): ReLU()
        (1): Conv2d(6, 6, kernel_size=(3, 3), stride=(1, 1), padding=(1, 1), groups=6, bias=False)
        (2): Conv2d(6, 24, kernel_size=(1, 1), stride=(1, 1), bias=False)
        (3): BatchNorm2d(24, eps=1e-05, momentum=0.1, affine=True, track_running_stats=True)
      )
    )
    (1-4): 4 x SepConv(
      (op): Sequential(
        (0): ReLU()
        (1): Conv2d(24, 24, kernel_size=(3, 3), stride=(1, 1), padding=(1, 1), groups=24, bias=False)
        (2): Conv2d(24, 24, kernel_size=(1, 1), stride=(1, 1), bias=False)
        (3): BatchNorm2d(24, eps=1e-05, momentum=0.1, affine=True, track_running_stats=True)
      )
    )
    (5): SepConv(
      (op): Sequential(
        (0): ReLU()
        (1): Conv2d(24, 24, kernel_size=(3, 3), stride=(2, 2), padding=(1, 1), groups=24, bias=False)
        (2): Conv2d(24, 48, kernel_size=(1, 1), stride=(1, 1), bias=False)
        (3): BatchNorm2d(48, eps=1e-05, momentum=0.1, affine=True, track_running_stats=True)
      )
    )
    (6-9): 4 x SepConv(
      (op): Sequential(
        (0): ReLU()
        (1): Conv2d(48, 48, kernel_size=(3, 3), stride=(1, 1), padding=(1, 1), groups=48, bias=False)
        (2): Conv2d(48, 48, kernel_size=(1, 1), stride=(1, 1), bias=False)
        (3): BatchNorm2d(48, eps=1e-05, momentum=0.1, affine=True, track_running_stats=True)
      )
    )
    (10): SepConv(
      (op): Sequential(
        (0): ReLU()
        (1): Conv2d(48, 48, kernel_size=(3, 3), stride=(2, 2), padding=(1, 1), groups=48, bias=False)
        (2): Conv2d(48, 72, kernel_size=(1, 1), stride=(1, 1), bias=False)
        (3): BatchNorm2d(72, eps=1e-05, momentum=0.1, affine=True, track_running_stats=True)
      )
    )
    (11-14): 4 x SepConv(
      (op): Sequential(
        (0): ReLU()
        (1): Conv2d(72, 72, kernel_size=(3, 3), stride=(1, 1), padding=(1, 1), groups=72, bias=False)
        (2): Conv2d(72, 72, kernel_size=(1, 1), stride=(1, 1), bias=False)
        (3): BatchNorm2d(72, eps=1e-05, momentum=0.1, affine=True, track_running_stats=True)
      )
    )
    (15): SepConv(
      (op): Sequential(
        (0): ReLU()
        (1): Conv2d(72, 72, kernel_size=(3, 3), stride=(2, 2), padding=(1, 1), groups=72, bias=False)
        (2): Conv2d(72, 96, kernel_size=(1, 1), stride=(1, 1), bias=False)
        (3): BatchNorm2d(96, eps=1e-05, momentum=0.1, affine=True, track_running_stats=True)
      )
    )
    (16-19): 4 x SepConv(
      (op): Sequential(
        (0): ReLU()
        (1): Conv2d(96, 96, kernel_size=(3, 3), stride=(1, 1), padding=(1, 1), groups=96, bias=False)
        (2): Conv2d(96, 96, kernel_size=(1, 1), stride=(1, 1), bias=False)
        (3): BatchNorm2d(96, eps=1e-05, momentum=0.1, affine=True, track_running_stats=True)
      )
    )
  )
  (global_pooling): AdaptiveAvgPool2d(output_size=1)
  (classifier): Linear(in_features=96, out_features=10, bias=True)
)
2024-03-27 10:58:50,628 #############################################################################
2024-03-27 10:58:50,628 Moving to Next Candidate Architecture...
2024-03-27 10:58:50,628 MODEL DETAILS
2024-03-27 10:58:50,628 Model Depth 20 Model Width 24
2024-03-27 10:58:50,629 Model Layers [0 0 0 0 0 0 0 0 0 0 0 0 0 0 0 0 0 0 0 0] Model Kernels [3 3 3 3 3 3 3 3 3 3 3 3 3 3 3 3 3 3 3 3]
…
2024-03-27 11:17:18,068 Test Accuracy of    ya: 98% (2859/2912)
2024-03-27 11:17:18,068 Test Accuracy of    re: 96% (2920/3017)
2024-03-27 11:17:18,068 Test Accuracy of    wo: 96% (2961/3060)
2024-03-27 11:17:18,068 
Test Accuracy (Overall): 96.933333% (29080/30000)
2024-03-27 11:17:18,068 Candidate Train Acc 97.926666 Candidate Val Acc 97.146667
2024-03-27 11:17:18,069 Increasing CHANNELS in WIDTH block...
2024-03-27 11:17:18,069 Highest Train Acc 97.863335 Highest Val Acc 97.183334
2024-03-27 11:17:18,069 Train Acc Diff 0.063332 Val Acc Diff -0.036667
2024-03-27 11:17:18,080 NetworkMix(
  (stem): Sequential(
    (0): Conv2d(1, 7, kernel_size=(3, 3), stride=(1, 1), padding=(1, 1), bias=False)
    (1): BatchNorm2d(7, eps=1e-05, momentum=0.1, affine=True, track_running_stats=True)
  )
  (mixlayers): ModuleList(
    (0): SepConv(
      (op): Sequential(
        (0): ReLU()
        (1): Conv2d(7, 7, kernel_size=(3, 3), stride=(1, 1), padding=(1, 1), groups=7, bias=False)
        (2): Conv2d(7, 28, kernel_size=(1, 1), stride=(1, 1), bias=False)
        (3): BatchNorm2d(28, eps=1e-05, momentum=0.1, affine=True, track_running_stats=True)
      )
    )
    (1-4): 4 x SepConv(
      (op): Sequential(
        (0): ReLU()
        (1): Conv2d(28, 28, kernel_size=(3, 3), stride=(1, 1), padding=(1, 1), groups=28, bias=False)
        (2): Conv2d(28, 28, kernel_size=(1, 1), stride=(1, 1), bias=False)
        (3): BatchNorm2d(28, eps=1e-05, momentum=0.1, affine=True, track_running_stats=True)
      )
    )
    (5): SepConv(
      (op): Sequential(
        (0): ReLU()
        (1): Conv2d(28, 28, kernel_size=(3, 3), stride=(2, 2), padding=(1, 1), groups=28, bias=False)
        (2): Conv2d(28, 56, kernel_size=(1, 1), stride=(1, 1), bias=False)
        (3): BatchNorm2d(56, eps=1e-05, momentum=0.1, affine=True, track_running_stats=True)
      )
    )
    (6-10): 5 x SepConv(
      (op): Sequential(
        (0): ReLU()
        (1): Conv2d(56, 56, kernel_size=(3, 3), stride=(1, 1), padding=(1, 1), groups=56, bias=False)
        (2): Conv2d(56, 56, kernel_size=(1, 1), stride=(1, 1), bias=False)
        (3): BatchNorm2d(56, eps=1e-05, momentum=0.1, affine=True, track_running_stats=True)
      )
    )
    (11): SepConv(
      (op): Sequential(
        (0): ReLU()
        (1): Conv2d(56, 56, kernel_size=(3, 3), stride=(2, 2), padding=(1, 1), groups=56, bias=False)
        (2): Conv2d(56, 84, kernel_size=(1, 1), stride=(1, 1), bias=False)
        (3): BatchNorm2d(84, eps=1e-05, momentum=0.1, affine=True, track_running_stats=True)
      )
    )
    (12-15): 4 x SepConv(
      (op): Sequential(
        (0): ReLU()
        (1): Conv2d(84, 84, kernel_size=(3, 3), stride=(1, 1), padding=(1, 1), groups=84, bias=False)
        (2): Conv2d(84, 84, kernel_size=(1, 1), stride=(1, 1), bias=False)
        (3): BatchNorm2d(84, eps=1e-05, momentum=0.1, affine=True, track_running_stats=True)
      )
    )
    (16): SepConv(
      (op): Sequential(
        (0): ReLU()
        (1): Conv2d(84, 84, kernel_size=(3, 3), stride=(2, 2), padding=(1, 1), groups=84, bias=False)
        (2): Conv2d(84, 112, kernel_size=(1, 1), stride=(1, 1), bias=False)
        (3): BatchNorm2d(112, eps=1e-05, momentum=0.1, affine=True, track_running_stats=True)
      )
    )
    (17-21): 5 x SepConv(
      (op): Sequential(
        (0): ReLU()
        (1): Conv2d(112, 112, kernel_size=(3, 3), stride=(1, 1), padding=(1, 1), groups=112, bias=False)
        (2): Conv2d(112, 112, kernel_size=(1, 1), stride=(1, 1), bias=False)
        (3): BatchNorm2d(112, eps=1e-05, momentum=0.1, affine=True, track_running_stats=True)
      )
    )
  )
  (global_pooling): AdaptiveAvgPool2d(output_size=1)
  (classifier): Linear(in_features=112, out_features=10, bias=True)
)
2024-03-27 11:17:18,081 #############################################################################
2024-03-27 11:17:18,081 Moving to Next Candidate Architecture...
2024-03-27 11:17:18,081 MODEL DETAILS
2024-03-27 11:17:18,081 Model Depth 22 Model Width 28
2024-03-27 11:17:18,081 Model Layers [0 0 0 0 0 0 0 0 0 0 0 0 0 0 0 0 0 0 0 0 0 0] Model Kernels [3 3 3 3 3 3 3 3 3 3 3 3 3 3 3 3 3 3 3 3 3 3]
…
2024-03-27 11:33:36,268 Test Accuracy of    ya: 98% (2874/2912)
2024-03-27 11:33:36,268 Test Accuracy of    re: 97% (2944/3017)
2024-03-27 11:33:36,268 Test Accuracy of    wo: 97% (2988/3060)
2024-03-27 11:33:36,268 
Test Accuracy (Overall): 97.283333% (29185/30000)
2024-03-27 11:33:36,268 Candidate Train Acc 98.260002 Candidate Val Acc 97.426666
2024-03-27 11:33:36,269 Increasing CHANNELS in WIDTH block...
2024-03-27 11:33:36,269 Highest Train Acc 98.196671 Highest Val Acc 97.340004
2024-03-27 11:33:36,269 Train Acc Diff 0.063332 Val Acc Diff 0.086662
2024-03-27 11:33:36,280 NetworkMix(
  (stem): Sequential(
    (0): Conv2d(1, 8, kernel_size=(3, 3), stride=(1, 1), padding=(1, 1), bias=False)
    (1): BatchNorm2d(8, eps=1e-05, momentum=0.1, affine=True, track_running_stats=True)
  )
  (mixlayers): ModuleList(
    (0): SepConv(
      (op): Sequential(
        (0): ReLU()
        (1): Conv2d(8, 8, kernel_size=(3, 3), stride=(1, 1), padding=(1, 1), groups=8, bias=False)
        (2): Conv2d(8, 32, kernel_size=(1, 1), stride=(1, 1), bias=False)
        (3): BatchNorm2d(32, eps=1e-05, momentum=0.1, affine=True, track_running_stats=True)
      )
    )
    (1-4): 4 x SepConv(
      (op): Sequential(
        (0): ReLU()
        (1): Conv2d(32, 32, kernel_size=(3, 3), stride=(1, 1), padding=(1, 1), groups=32, bias=False)
        (2): Conv2d(32, 32, kernel_size=(1, 1), stride=(1, 1), bias=False)
        (3): BatchNorm2d(32, eps=1e-05, momentum=0.1, affine=True, track_running_stats=True)
      )
    )
    (5): SepConv(
      (op): Sequential(
        (0): ReLU()
        (1): Conv2d(32, 32, kernel_size=(3, 3), stride=(2, 2), padding=(1, 1), groups=32, bias=False)
        (2): Conv2d(32, 64, kernel_size=(1, 1), stride=(1, 1), bias=False)
        (3): BatchNorm2d(64, eps=1e-05, momentum=0.1, affine=True, track_running_stats=True)
      )
    )
    (6-10): 5 x SepConv(
      (op): Sequential(
        (0): ReLU()
        (1): Conv2d(64, 64, kernel_size=(3, 3), stride=(1, 1), padding=(1, 1), groups=64, bias=False)
        (2): Conv2d(64, 64, kernel_size=(1, 1), stride=(1, 1), bias=False)
        (3): BatchNorm2d(64, eps=1e-05, momentum=0.1, affine=True, track_running_stats=True)
      )
    )
    (11): SepConv(
      (op): Sequential(
        (0): ReLU()
        (1): Conv2d(64, 64, kernel_size=(3, 3), stride=(2, 2), padding=(1, 1), groups=64, bias=False)
        (2): Conv2d(64, 96, kernel_size=(1, 1), stride=(1, 1), bias=False)
        (3): BatchNorm2d(96, eps=1e-05, momentum=0.1, affine=True, track_running_stats=True)
      )
    )
    (12-16): 5 x SepConv(
      (op): Sequential(
        (0): ReLU()
        (1): Conv2d(96, 96, kernel_size=(3, 3), stride=(1, 1), padding=(1, 1), groups=96, bias=False)
        (2): Conv2d(96, 96, kernel_size=(1, 1), stride=(1, 1), bias=False)
        (3): BatchNorm2d(96, eps=1e-05, momentum=0.1, affine=True, track_running_stats=True)
      )
    )
    (17): SepConv(
      (op): Sequential(
        (0): ReLU()
        (1): Conv2d(96, 96, kernel_size=(3, 3), stride=(2, 2), padding=(1, 1), groups=96, bias=False)
        (2): Conv2d(96, 128, kernel_size=(1, 1), stride=(1, 1), bias=False)
        (3): BatchNorm2d(128, eps=1e-05, momentum=0.1, affine=True, track_running_stats=True)
      )
    )
    (18-22): 5 x SepConv(
      (op): Sequential(
        (0): ReLU()
        (1): Conv2d(128, 128, kernel_size=(3, 3), stride=(1, 1), padding=(1, 1), groups=128, bias=False)
        (2): Conv2d(128, 128, kernel_size=(1, 1), stride=(1, 1), bias=False)
        (3): BatchNorm2d(128, eps=1e-05, momentum=0.1, affine=True, track_running_stats=True)
      )
    )
  )
  (global_pooling): AdaptiveAvgPool2d(output_size=1)
  (classifier): Linear(in_features=128, out_features=10, bias=True)
)
2024-03-27 11:33:36,281 #############################################################################
2024-03-27 11:33:36,282 Moving to Next Candidate Architecture...
2024-03-27 11:33:36,282 MODEL DETAILS
2024-03-27 11:33:36,282 Model Depth 23 Model Width 32
2024-03-27 11:33:36,282 Model Layers [0 0 0 0 0 0 0 0 0 0 0 0 0 0 0 0 0 0 0 0 0 0 0] Model Kernels [3 3 3 3 3 3 3 3 3 3 3 3 3 3 3 3 3 3 3 3 3 3 3]
…
2024-03-27 11:48:38,360 Highest Train Acc 98.523331 Highest Val Acc 97.596664
2024-03-27 11:48:38,360 Train Acc Diff 0.080002 Val Acc Diff 0.010002
2024-03-27 11:48:38,360 Discovered Final Depth 23
2024-03-27 11:48:38,360 Epochs so far 18
2024-03-27 11:48:38,360 END OF DEPTH SEARCH...
2024-03-27 11:48:38,360 #############################################################################
2024-03-27 11:48:38,360 #############################################################################
2024-03-27 11:48:38,360 
2024-03-27 11:48:38,360 RUNNING WIDTH SEARCH NOW...
2024-03-27 11:48:38,371 NetworkMix(
  (stem): Sequential(
    (0): Conv2d(1, 7, kernel_size=(3, 3), stride=(1, 1), padding=(1, 1), bias=False)
    (1): BatchNorm2d(7, eps=1e-05, momentum=0.1, affine=True, track_running_stats=True)
  )
  (mixlayers): ModuleList(
    (0): SepConv(
      (op): Sequential(
        (0): ReLU()
        (1): Conv2d(7, 7, kernel_size=(3, 3), stride=(1, 1), padding=(1, 1), groups=7, bias=False)
        (2): Conv2d(7, 30, kernel_size=(1, 1), stride=(1, 1), bias=False)
        (3): BatchNorm2d(30, eps=1e-05, momentum=0.1, affine=True, track_running_stats=True)
      )
    )
    (1-4): 4 x SepConv(
      (op): Sequential(
        (0): ReLU()
        (1): Conv2d(30, 30, kernel_size=(3, 3), stride=(1, 1), padding=(1, 1), groups=30, bias=False)
        (2): Conv2d(30, 30, kernel_size=(1, 1), stride=(1, 1), bias=False)
        (3): BatchNorm2d(30, eps=1e-05, momentum=0.1, affine=True, track_running_stats=True)
      )
    )
    (5): SepConv(
      (op): Sequential(
        (0): ReLU()
        (1): Conv2d(30, 30, kernel_size=(3, 3), stride=(2, 2), padding=(1, 1), groups=30, bias=False)
        (2): Conv2d(30, 60, kernel_size=(1, 1), stride=(1, 1), bias=False)
        (3): BatchNorm2d(60, eps=1e-05, momentum=0.1, affine=True, track_running_stats=True)
      )
    )
    (6-10): 5 x SepConv(
      (op): Sequential(
        (0): ReLU()
        (1): Conv2d(60, 60, kernel_size=(3, 3), stride=(1, 1), padding=(1, 1), groups=60, bias=False)
        (2): Conv2d(60, 60, kernel_size=(1, 1), stride=(1, 1), bias=False)
        (3): BatchNorm2d(60, eps=1e-05, momentum=0.1, affine=True, track_running_stats=True)
      )
    )
    (11): SepConv(
      (op): Sequential(
        (0): ReLU()
        (1): Conv2d(60, 60, kernel_size=(3, 3), stride=(2, 2), padding=(1, 1), groups=60, bias=False)
        (2): Conv2d(60, 90, kernel_size=(1, 1), stride=(1, 1), bias=False)
        (3): BatchNorm2d(90, eps=1e-05, momentum=0.1, affine=True, track_running_stats=True)
      )
    )
    (12-16): 5 x SepConv(
      (op): Sequential(
        (0): ReLU()
        (1): Conv2d(90, 90, kernel_size=(3, 3), stride=(1, 1), padding=(1, 1), groups=90, bias=False)
        (2): Conv2d(90, 90, kernel_size=(1, 1), stride=(1, 1), bias=False)
        (3): BatchNorm2d(90, eps=1e-05, momentum=0.1, affine=True, track_running_stats=True)
      )
    )
    (17): SepConv(
      (op): Sequential(
        (0): ReLU()
        (1): Conv2d(90, 90, kernel_size=(3, 3), stride=(2, 2), padding=(1, 1), groups=90, bias=False)
        (2): Conv2d(90, 120, kernel_size=(1, 1), stride=(1, 1), bias=False)
        (3): BatchNorm2d(120, eps=1e-05, momentum=0.1, affine=True, track_running_stats=True)
      )
    )
    (18-22): 5 x SepConv(
      (op): Sequential(
        (0): ReLU()
        (1): Conv2d(120, 120, kernel_size=(3, 3), stride=(1, 1), padding=(1, 1), groups=120, bias=False)
        (2): Conv2d(120, 120, kernel_size=(1, 1), stride=(1, 1), bias=False)
        (3): BatchNorm2d(120, eps=1e-05, momentum=0.1, affine=True, track_running_stats=True)
      )
    )
  )
  (global_pooling): AdaptiveAvgPool2d(output_size=1)
  (classifier): Linear(in_features=120, out_features=10, bias=True)
)
2024-03-27 11:48:38,372 Moving to Next Candidate Architecture...
2024-03-27 11:48:38,372 MODEL DETAILS
2024-03-27 11:48:38,372 Model Depth 23 Model Width 30
2024-03-27 11:48:38,372 Model Layers [0 0 0 0 0 0 0 0 0 0 0 0 0 0 0 0 0 0 0 0 0 0 0] Model Kernels [3 3 3 3 3 3 3 3 3 3 3 3 3 3 3 3 3 3 3 3 3 3 3]
2024-03-27 11:48:38,373 Total number of epochs 22.000000
…
2024-03-27 12:00:11,237 Test Accuracy of    ma: 96% (2905/3026)
2024-03-27 12:00:11,237 Test Accuracy of    ya: 98% (2872/2912)
2024-03-27 12:00:11,237 Test Accuracy of    re: 97% (2946/3017)
2024-03-27 12:00:11,237 Test Accuracy of    wo: 97% (2998/3060)
2024-03-27 12:00:11,237 
Test Accuracy (Overall): 97.656667% (29297/30000)
2024-03-27 12:00:11,238 Candidate Train Acc 98.720001 Candidate Val Acc 97.610001
2024-03-27 12:00:11,238 Train Acc Diff 0.103333 Val Acc Diff -0.010002
2024-03-27 12:00:11,238 Highest Train Acc 98.616669 Highest Val Acc 97.620003
2024-03-27 12:00:11,249 NetworkMix(
  (stem): Sequential(
    (0): Conv2d(1, 6, kernel_size=(3, 3), stride=(1, 1), padding=(1, 1), bias=False)
    (1): BatchNorm2d(6, eps=1e-05, momentum=0.1, affine=True, track_running_stats=True)
  )
  (mixlayers): ModuleList(
    (0): SepConv(
      (op): Sequential(
        (0): ReLU()
        (1): Conv2d(6, 6, kernel_size=(3, 3), stride=(1, 1), padding=(1, 1), groups=6, bias=False)
        (2): Conv2d(6, 26, kernel_size=(1, 1), stride=(1, 1), bias=False)
        (3): BatchNorm2d(26, eps=1e-05, momentum=0.1, affine=True, track_running_stats=True)
      )
    )
    (1-4): 4 x SepConv(
      (op): Sequential(
        (0): ReLU()
        (1): Conv2d(26, 26, kernel_size=(3, 3), stride=(1, 1), padding=(1, 1), groups=26, bias=False)
        (2): Conv2d(26, 26, kernel_size=(1, 1), stride=(1, 1), bias=False)
        (3): BatchNorm2d(26, eps=1e-05, momentum=0.1, affine=True, track_running_stats=True)
      )
    )
    (5): SepConv(
      (op): Sequential(
        (0): ReLU()
        (1): Conv2d(26, 26, kernel_size=(3, 3), stride=(2, 2), padding=(1, 1), groups=26, bias=False)
        (2): Conv2d(26, 52, kernel_size=(1, 1), stride=(1, 1), bias=False)
        (3): BatchNorm2d(52, eps=1e-05, momentum=0.1, affine=True, track_running_stats=True)
      )
    )
    (6-10): 5 x SepConv(
      (op): Sequential(
        (0): ReLU()
        (1): Conv2d(52, 52, kernel_size=(3, 3), stride=(1, 1), padding=(1, 1), groups=52, bias=False)
        (2): Conv2d(52, 52, kernel_size=(1, 1), stride=(1, 1), bias=False)
        (3): BatchNorm2d(52, eps=1e-05, momentum=0.1, affine=True, track_running_stats=True)
      )
    )
    (11): SepConv(
      (op): Sequential(
        (0): ReLU()
        (1): Conv2d(52, 52, kernel_size=(3, 3), stride=(2, 2), padding=(1, 1), groups=52, bias=False)
        (2): Conv2d(52, 78, kernel_size=(1, 1), stride=(1, 1), bias=False)
        (3): BatchNorm2d(78, eps=1e-05, momentum=0.1, affine=True, track_running_stats=True)
      )
    )
    (12-16): 5 x SepConv(
      (op): Sequential(
        (0): ReLU()
        (1): Conv2d(78, 78, kernel_size=(3, 3), stride=(1, 1), padding=(1, 1), groups=78, bias=False)
        (2): Conv2d(78, 78, kernel_size=(1, 1), stride=(1, 1), bias=False)
        (3): BatchNorm2d(78, eps=1e-05, momentum=0.1, affine=True, track_running_stats=True)
      )
    )
    (17): SepConv(
      (op): Sequential(
        (0): ReLU()
        (1): Conv2d(78, 78, kernel_size=(3, 3), stride=(2, 2), padding=(1, 1), groups=78, bias=False)
        (2): Conv2d(78, 104, kernel_size=(1, 1), stride=(1, 1), bias=False)
        (3): BatchNorm2d(104, eps=1e-05, momentum=0.1, affine=True, track_running_stats=True)
      )
    )
    (18-22): 5 x SepConv(
      (op): Sequential(
        (0): ReLU()
        (1): Conv2d(104, 104, kernel_size=(3, 3), stride=(1, 1), padding=(1, 1), groups=104, bias=False)
        (2): Conv2d(104, 104, kernel_size=(1, 1), stride=(1, 1), bias=False)
        (3): BatchNorm2d(104, eps=1e-05, momentum=0.1, affine=True, track_running_stats=True)
      )
    )
  )
  (global_pooling): AdaptiveAvgPool2d(output_size=1)
  (classifier): Linear(in_features=104, out_features=10, bias=True)
)
2024-03-27 12:00:11,250 Moving to Next Candidate Architecture...
2024-03-27 12:00:11,250 MODEL DETAILS
2024-03-27 12:00:11,250 Model Depth 23 Model Width 26
2024-03-27 12:00:11,250 Model Layers [0 0 0 0 0 0 0 0 0 0 0 0 0 0 0 0 0 0 0 0 0 0 0] Model Kernels [3 3 3 3 3 3 3 3 3 3 3 3 3 3 3 3 3 3 3 3 3 3 3]
2024-03-27 12:00:11,251 Total number of epochs 28.000000
…
2024-03-27 12:13:23,628 Test Accuracy of    ma: 97% (2937/3026)
2024-03-27 12:13:23,628 Test Accuracy of    ya: 98% (2877/2912)
2024-03-27 12:13:23,628 Test Accuracy of    re: 97% (2954/3017)
2024-03-27 12:13:23,628 Test Accuracy of    wo: 98% (3016/3060)
2024-03-27 12:13:23,628 
Test Accuracy (Overall): 97.780000% (29334/30000)
2024-03-27 12:13:23,628 Candidate Train Acc 98.753334 Candidate Val Acc 97.843338
2024-03-27 12:13:23,629 Train Acc Diff -0.006668 Val Acc Diff 0.100006
2024-03-27 12:13:23,629 Highest Train Acc 98.753334 Highest Val Acc 97.843338
2024-03-27 12:13:23,640 NetworkMix(
  (stem): Sequential(
    (0): Conv2d(1, 5, kernel_size=(3, 3), stride=(1, 1), padding=(1, 1), bias=False)
    (1): BatchNorm2d(5, eps=1e-05, momentum=0.1, affine=True, track_running_stats=True)
  )
  (mixlayers): ModuleList(
    (0): SepConv(
      (op): Sequential(
        (0): ReLU()
        (1): Conv2d(5, 5, kernel_size=(3, 3), stride=(1, 1), padding=(1, 1), groups=5, bias=False)
        (2): Conv2d(5, 22, kernel_size=(1, 1), stride=(1, 1), bias=False)
        (3): BatchNorm2d(22, eps=1e-05, momentum=0.1, affine=True, track_running_stats=True)
      )
    )
    (1-4): 4 x SepConv(
      (op): Sequential(
        (0): ReLU()
        (1): Conv2d(22, 22, kernel_size=(3, 3), stride=(1, 1), padding=(1, 1), groups=22, bias=False)
        (2): Conv2d(22, 22, kernel_size=(1, 1), stride=(1, 1), bias=False)
        (3): BatchNorm2d(22, eps=1e-05, momentum=0.1, affine=True, track_running_stats=True)
      )
    )
    (5): SepConv(
      (op): Sequential(
        (0): ReLU()
        (1): Conv2d(22, 22, kernel_size=(3, 3), stride=(2, 2), padding=(1, 1), groups=22, bias=False)
        (2): Conv2d(22, 44, kernel_size=(1, 1), stride=(1, 1), bias=False)
        (3): BatchNorm2d(44, eps=1e-05, momentum=0.1, affine=True, track_running_stats=True)
      )
    )
    (6-10): 5 x SepConv(
      (op): Sequential(
        (0): ReLU()
        (1): Conv2d(44, 44, kernel_size=(3, 3), stride=(1, 1), padding=(1, 1), groups=44, bias=False)
        (2): Conv2d(44, 44, kernel_size=(1, 1), stride=(1, 1), bias=False)
        (3): BatchNorm2d(44, eps=1e-05, momentum=0.1, affine=True, track_running_stats=True)
      )
    )
    (11): SepConv(
      (op): Sequential(
        (0): ReLU()
        (1): Conv2d(44, 44, kernel_size=(3, 3), stride=(2, 2), padding=(1, 1), groups=44, bias=False)
        (2): Conv2d(44, 66, kernel_size=(1, 1), stride=(1, 1), bias=False)
        (3): BatchNorm2d(66, eps=1e-05, momentum=0.1, affine=True, track_running_stats=True)
      )
    )
    (12-16): 5 x SepConv(
      (op): Sequential(
        (0): ReLU()
        (1): Conv2d(66, 66, kernel_size=(3, 3), stride=(1, 1), padding=(1, 1), groups=66, bias=False)
        (2): Conv2d(66, 66, kernel_size=(1, 1), stride=(1, 1), bias=False)
        (3): BatchNorm2d(66, eps=1e-05, momentum=0.1, affine=True, track_running_stats=True)
      )
    )
    (17): SepConv(
      (op): Sequential(
        (0): ReLU()
        (1): Conv2d(66, 66, kernel_size=(3, 3), stride=(2, 2), padding=(1, 1), groups=66, bias=False)
        (2): Conv2d(66, 88, kernel_size=(1, 1), stride=(1, 1), bias=False)
        (3): BatchNorm2d(88, eps=1e-05, momentum=0.1, affine=True, track_running_stats=True)
      )
    )
    (18-22): 5 x SepConv(
      (op): Sequential(
        (0): ReLU()
        (1): Conv2d(88, 88, kernel_size=(3, 3), stride=(1, 1), padding=(1, 1), groups=88, bias=False)
        (2): Conv2d(88, 88, kernel_size=(1, 1), stride=(1, 1), bias=False)
        (3): BatchNorm2d(88, eps=1e-05, momentum=0.1, affine=True, track_running_stats=True)
      )
    )
  )
  (global_pooling): AdaptiveAvgPool2d(output_size=1)
  (classifier): Linear(in_features=88, out_features=10, bias=True)
)
2024-03-27 12:13:23,641 Moving to Next Candidate Architecture...
2024-03-27 12:13:23,641 MODEL DETAILS
2024-03-27 12:13:23,641 Model Depth 23 Model Width 22
2024-03-27 12:13:23,641 Model Layers [0 0 0 0 0 0 0 0 0 0 0 0 0 0 0 0 0 0 0 0 0 0 0] Model Kernels [3 3 3 3 3 3 3 3 3 3 3 3 3 3 3 3 3 3 3 3 3 3 3]
2024-03-27 12:13:23,641 Total number of epochs 34.000000
…
2024-03-27 12:27:58,291 Test Accuracy of    ma: 96% (2935/3026)
2024-03-27 12:27:58,291 Test Accuracy of    ya: 98% (2866/2912)
2024-03-27 12:27:58,292 Test Accuracy of    re: 98% (2957/3017)
2024-03-27 12:27:58,292 Test Accuracy of    wo: 97% (2991/3060)
2024-03-27 12:27:58,292 
Test Accuracy (Overall): 97.756667% (29327/30000)
2024-03-27 12:27:58,292 Candidate Train Acc 98.730003 Candidate Val Acc 97.716667
2024-03-27 12:27:58,292 Train Acc Diff -0.023331 Val Acc Diff -0.126671
2024-03-27 12:27:58,293 Highest Train Acc 98.753334 Highest Val Acc 97.843338
2024-03-27 12:27:58,303 NetworkMix(
  (stem): Sequential(
    (0): Conv2d(1, 4, kernel_size=(3, 3), stride=(1, 1), padding=(1, 1), bias=False)
    (1): BatchNorm2d(4, eps=1e-05, momentum=0.1, affine=True, track_running_stats=True)
  )
  (mixlayers): ModuleList(
    (0): SepConv(
      (op): Sequential(
        (0): ReLU()
        (1): Conv2d(4, 4, kernel_size=(3, 3), stride=(1, 1), padding=(1, 1), groups=4, bias=False)
        (2): Conv2d(4, 18, kernel_size=(1, 1), stride=(1, 1), bias=False)
        (3): BatchNorm2d(18, eps=1e-05, momentum=0.1, affine=True, track_running_stats=True)
      )
    )
    (1-4): 4 x SepConv(
      (op): Sequential(
        (0): ReLU()
        (1): Conv2d(18, 18, kernel_size=(3, 3), stride=(1, 1), padding=(1, 1), groups=18, bias=False)
        (2): Conv2d(18, 18, kernel_size=(1, 1), stride=(1, 1), bias=False)
        (3): BatchNorm2d(18, eps=1e-05, momentum=0.1, affine=True, track_running_stats=True)
      )
    )
    (5): SepConv(
      (op): Sequential(
        (0): ReLU()
        (1): Conv2d(18, 18, kernel_size=(3, 3), stride=(2, 2), padding=(1, 1), groups=18, bias=False)
        (2): Conv2d(18, 36, kernel_size=(1, 1), stride=(1, 1), bias=False)
        (3): BatchNorm2d(36, eps=1e-05, momentum=0.1, affine=True, track_running_stats=True)
      )
    )
    (6-10): 5 x SepConv(
      (op): Sequential(
        (0): ReLU()
        (1): Conv2d(36, 36, kernel_size=(3, 3), stride=(1, 1), padding=(1, 1), groups=36, bias=False)
        (2): Conv2d(36, 36, kernel_size=(1, 1), stride=(1, 1), bias=False)
        (3): BatchNorm2d(36, eps=1e-05, momentum=0.1, affine=True, track_running_stats=True)
      )
    )
    (11): SepConv(
      (op): Sequential(
        (0): ReLU()
        (1): Conv2d(36, 36, kernel_size=(3, 3), stride=(2, 2), padding=(1, 1), groups=36, bias=False)
        (2): Conv2d(36, 54, kernel_size=(1, 1), stride=(1, 1), bias=False)
        (3): BatchNorm2d(54, eps=1e-05, momentum=0.1, affine=True, track_running_stats=True)
      )
    )
    (12-16): 5 x SepConv(
      (op): Sequential(
        (0): ReLU()
        (1): Conv2d(54, 54, kernel_size=(3, 3), stride=(1, 1), padding=(1, 1), groups=54, bias=False)
        (2): Conv2d(54, 54, kernel_size=(1, 1), stride=(1, 1), bias=False)
        (3): BatchNorm2d(54, eps=1e-05, momentum=0.1, affine=True, track_running_stats=True)
      )
    )
    (17): SepConv(
      (op): Sequential(
        (0): ReLU()
        (1): Conv2d(54, 54, kernel_size=(3, 3), stride=(2, 2), padding=(1, 1), groups=54, bias=False)
        (2): Conv2d(54, 72, kernel_size=(1, 1), stride=(1, 1), bias=False)
        (3): BatchNorm2d(72, eps=1e-05, momentum=0.1, affine=True, track_running_stats=True)
      )
    )
    (18-22): 5 x SepConv(
      (op): Sequential(
        (0): ReLU()
        (1): Conv2d(72, 72, kernel_size=(3, 3), stride=(1, 1), padding=(1, 1), groups=72, bias=False)
        (2): Conv2d(72, 72, kernel_size=(1, 1), stride=(1, 1), bias=False)
        (3): BatchNorm2d(72, eps=1e-05, momentum=0.1, affine=True, track_running_stats=True)
      )
    )
  )
  (global_pooling): AdaptiveAvgPool2d(output_size=1)
  (classifier): Linear(in_features=72, out_features=10, bias=True)
)
2024-03-27 12:27:58,304 Moving to Next Candidate Architecture...
2024-03-27 12:27:58,305 MODEL DETAILS
2024-03-27 12:27:58,305 Model Depth 23 Model Width 18
2024-03-27 12:27:58,305 Model Layers [0 0 0 0 0 0 0 0 0 0 0 0 0 0 0 0 0 0 0 0 0 0 0] Model Kernels [3 3 3 3 3 3 3 3 3 3 3 3 3 3 3 3 3 3 3 3 3 3 3]
2024-03-27 12:27:58,305 Total number of epochs 40.000000
…
