…
clip=5, learning_rate=0.025, max_depth=100, max_width=32, min_depth=5, min_width=16, model_path='saved_models', momentum=0.9, report_freq=1, save='Rubric-Kmnist_without_cutout-20240327-091200', search=True, seed=20, target_acc=100.0, target_acc_tolerance=0.1, valid_size=0.5, weight_decay=0.0003, width_resolution=8)
2024-03-27 09:12:00,872 #############################################################################
2024-03-27 09:12:00,873 INITIALIZING DEPTH AND WIDTH SEARCH...
2024-03-27 09:12:00,873 RUNNING MACRO SEARCH FIRST...
2024-03-27 09:12:03,740 NetworkMix(
  (stem): Sequential(
    (0): Conv2d(1, 4, kernel_size=(3, 3), stride=(1, 1), padding=(1, 1), bias=False)
    (1): BatchNorm2d(4, eps=1e-05, momentum=0.1, affine=True, track_running_stats=True)
  )
  (mixlayers): ModuleList(
    (0): SepConv(
      (op): Sequential(
        (0): ReLU()
        (1): Conv2d(4, 4, kernel_size=(3, 3), stride=(1, 1), padding=(1, 1), groups=4, bias=False)
        (2): Conv2d(4, 16, kernel_size=(1, 1), stride=(1, 1), bias=False)
        (3): BatchNorm2d(16, eps=1e-05, momentum=0.1, affine=True, track_running_stats=True)
      )
    )
    (1): SepConv(
      (op): Sequential(
        (0): ReLU()
        (1): Conv2d(16, 16, kernel_size=(3, 3), stride=(2, 2), padding=(1, 1), groups=16, bias=False)
        (2): Conv2d(16, 32, kernel_size=(1, 1), stride=(1, 1), bias=False)
        (3): BatchNorm2d(32, eps=1e-05, momentum=0.1, affine=True, track_running_stats=True)
      )
    )
    (2): SepConv(
      (op): Sequential(
        (0): ReLU()
        (1): Conv2d(32, 32, kernel_size=(3, 3), stride=(2, 2), padding=(1, 1), groups=32, bias=False)
        (2): Conv2d(32, 48, kernel_size=(1, 1), stride=(1, 1), bias=False)
        (3): BatchNorm2d(48, eps=1e-05, momentum=0.1, affine=True, track_running_stats=True)
      )
    )
    (3): SepConv(
      (op): Sequential(
        (0): ReLU()
        (1): Conv2d(48, 48, kernel_size=(3, 3), stride=(2, 2), padding=(1, 1), groups=48, bias=False)
        (2): Conv2d(48, 64, kernel_size=(1, 1), stride=(1, 1), bias=False)
        (3): BatchNorm2d(64, eps=1e-05, momentum=0.1, affine=True, track_running_stats=True)
      )
    )
    (4): SepConv(
      (op): Sequential(
        (0): ReLU()
        (1): Conv2d(64, 64, kernel_size=(3, 3), stride=(1, 1), padding=(1, 1), groups=64, bias=False)
        (2): Conv2d(64, 64, kernel_size=(1, 1), stride=(1, 1), bias=False)
        (3): BatchNorm2d(64, eps=1e-05, momentum=0.1, affine=True, track_running_stats=True)
      )
    )
  )
  (global_pooling): AdaptiveAvgPool2d(output_size=1)
  (classifier): Linear(in_features=64, out_features=10, bias=True)
)
2024-03-27 09:12:03,741 MODEL DETAILS
2024-03-27 09:12:03,741 Model Depth 5 Model Width 16
2024-03-27 09:12:03,741 Model Layers [0 0 0 0 0] Model Kernels [3 3 3 3 3]
2024-03-27 09:12:03,742 Training epochs 2
2024-03-27 09:12:03,742 Model Parameters = 0.011898MB
2024-03-27 09:12:03,742 Training Model...
2024-03-27 09:12:12,839 epoch 0 lr 6.250000e-03
2024-03-27 09:12:12,839 train_acc 67.996666
…
2024-03-27 09:12:19,903 Test Accuracy of    na: 85% (2596/3034)
2024-03-27 09:12:19,903 Test Accuracy of    ha: 86% (2585/2988)
2024-03-27 09:12:19,903 Test Accuracy of    ma: 82% (2495/3026)
2024-03-27 09:12:19,903 Test Accuracy of    ya: 91% (2675/2912)
2024-03-27 09:12:19,903 Test Accuracy of    re: 92% (2779/3017)
2024-03-27 09:12:19,903 Test Accuracy of    wo: 85% (2604/3060)
2024-03-27 09:12:19,903 
Test Accuracy (Overall): 86.776667% (26033/30000)
2024-03-27 09:12:19,903 Baseline Train Acc 86.846664 Baseline Val Acc 86.776665
2024-03-27 09:12:19,907 NetworkMix(
  (stem): Sequential(
    (0): Conv2d(1, 4, kernel_size=(3, 3), stride=(1, 1), padding=(1, 1), bias=False)
    (1): BatchNorm2d(4, eps=1e-05, momentum=0.1, affine=True, track_running_stats=True)
  )
  (mixlayers): ModuleList(
    (0): SepConv(
      (op): Sequential(
        (0): ReLU()
        (1): Conv2d(4, 4, kernel_size=(3, 3), stride=(1, 1), padding=(1, 1), groups=4, bias=False)
        (2): Conv2d(4, 16, kernel_size=(1, 1), stride=(1, 1), bias=False)
        (3): BatchNorm2d(16, eps=1e-05, momentum=0.1, affine=True, track_running_stats=True)
      )
    )
    (1): SepConv(
      (op): Sequential(
        (0): ReLU()
        (1): Conv2d(16, 16, kernel_size=(3, 3), stride=(2, 2), padding=(1, 1), groups=16, bias=False)
        (2): Conv2d(16, 32, kernel_size=(1, 1), stride=(1, 1), bias=False)
        (3): BatchNorm2d(32, eps=1e-05, momentum=0.1, affine=True, track_running_stats=True)
      )
    )
    (2): SepConv(
      (op): Sequential(
        (0): ReLU()
        (1): Conv2d(32, 32, kernel_size=(3, 3), stride=(1, 1), padding=(1, 1), groups=32, bias=False)
        (2): Conv2d(32, 32, kernel_size=(1, 1), stride=(1, 1), bias=False)
        (3): BatchNorm2d(32, eps=1e-05, momentum=0.1, affine=True, track_running_stats=True)
      )
    )
    (3): SepConv(
      (op): Sequential(
        (0): ReLU()
        (1): Conv2d(32, 32, kernel_size=(3, 3), stride=(2, 2), padding=(1, 1), groups=32, bias=False)
        (2): Conv2d(32, 48, kernel_size=(1, 1), stride=(1, 1), bias=False)
        (3): BatchNorm2d(48, eps=1e-05, momentum=0.1, affine=True, track_running_stats=True)
      )
    )
    (4): SepConv(
      (op): Sequential(
        (0): ReLU()
        (1): Conv2d(48, 48, kernel_size=(3, 3), stride=(2, 2), padding=(1, 1), groups=48, bias=False)
        (2): Conv2d(48, 64, kernel_size=(1, 1), stride=(1, 1), bias=False)
        (3): BatchNorm2d(64, eps=1e-05, momentum=0.1, affine=True, track_running_stats=True)
      )
    )
    (5): SepConv(
      (op): Sequential(
        (0): ReLU()
        (1): Conv2d(64, 64, kernel_size=(3, 3), stride=(1, 1), padding=(1, 1), groups=64, bias=False)
        (2): Conv2d(64, 64, kernel_size=(1, 1), stride=(1, 1), bias=False)
        (3): BatchNorm2d(64, eps=1e-05, momentum=0.1, affine=True, track_running_stats=True)
      )
    )
  )
  (global_pooling): AdaptiveAvgPool2d(output_size=1)
  (classifier): Linear(in_features=64, out_features=10, bias=True)
)
2024-03-27 09:12:19,908 #############################################################################
2024-03-27 09:12:19,908 Moving to Next Candidate Architecture...
2024-03-27 09:12:19,908 MODEL DETAILS
2024-03-27 09:12:19,908 Model Depth 6 Model Width 16
2024-03-27 09:12:19,908 Model Layers [0 0 0 0 0 0] Model Kernels [3 3 3 3 3 3]
2024-03-27 09:12:19,908 Total number of epochs 2
…
2024-03-27 09:12:31,997 Test Accuracy of    ma: 87% (2647/3026)
2024-03-27 09:12:31,997 Test Accuracy of    ya: 94% (2740/2912)
2024-03-27 09:12:31,997 Test Accuracy of    re: 90% (2737/3017)
2024-03-27 09:12:31,997 Test Accuracy of    wo: 93% (2850/3060)
2024-03-27 09:12:31,997 
Test Accuracy (Overall): 90.306667% (27092/30000)
2024-03-27 09:12:31,997 Candidate Train Acc 90.136665 Candidate Val Acc 90.306671
2024-03-27 09:12:31,997 Train Acc Diff 3.290001 Val Acc Diff 3.530006
2024-03-27 09:12:31,998 Highest Train Acc 90.136665 Highest Val Acc 90.306671
2024-03-27 09:12:32,001 NetworkMix(
  (stem): Sequential(
    (0): Conv2d(1, 4, kernel_size=(3, 3), stride=(1, 1), padding=(1, 1), bias=False)
    (1): BatchNorm2d(4, eps=1e-05, momentum=0.1, affine=True, track_running_stats=True)
  )
  (mixlayers): ModuleList(
    (0): SepConv(
      (op): Sequential(
        (0): ReLU()
        (1): Conv2d(4, 4, kernel_size=(3, 3), stride=(1, 1), padding=(1, 1), groups=4, bias=False)
        (2): Conv2d(4, 16, kernel_size=(1, 1), stride=(1, 1), bias=False)
        (3): BatchNorm2d(16, eps=1e-05, momentum=0.1, affine=True, track_running_stats=True)
      )
    )
    (1): SepConv(
      (op): Sequential(
        (0): ReLU()
        (1): Conv2d(16, 16, kernel_size=(3, 3), stride=(2, 2), padding=(1, 1), groups=16, bias=False)
        (2): Conv2d(16, 32, kernel_size=(1, 1), stride=(1, 1), bias=False)
        (3): BatchNorm2d(32, eps=1e-05, momentum=0.1, affine=True, track_running_stats=True)
      )
    )
    (2): SepConv(
      (op): Sequential(
        (0): ReLU()
        (1): Conv2d(32, 32, kernel_size=(3, 3), stride=(1, 1), padding=(1, 1), groups=32, bias=False)
        (2): Conv2d(32, 32, kernel_size=(1, 1), stride=(1, 1), bias=False)
        (3): BatchNorm2d(32, eps=1e-05, momentum=0.1, affine=True, track_running_stats=True)
      )
    )
    (3): SepConv(
      (op): Sequential(
        (0): ReLU()
        (1): Conv2d(32, 32, kernel_size=(3, 3), stride=(2, 2), padding=(1, 1), groups=32, bias=False)
        (2): Conv2d(32, 48, kernel_size=(1, 1), stride=(1, 1), bias=False)
        (3): BatchNorm2d(48, eps=1e-05, momentum=0.1, affine=True, track_running_stats=True)
      )
    )
    (4): SepConv(
      (op): Sequential(
        (0): ReLU()
        (1): Conv2d(48, 48, kernel_size=(3, 3), stride=(1, 1), padding=(1, 1), groups=48, bias=False)
        (2): Conv2d(48, 48, kernel_size=(1, 1), stride=(1, 1), bias=False)
        (3): BatchNorm2d(48, eps=1e-05, momentum=0.1, affine=True, track_running_stats=True)
      )
    )
    (5): SepConv(
      (op): Sequential(
        (0): ReLU()
        (1): Conv2d(48, 48, kernel_size=(3, 3), stride=(2, 2), padding=(1, 1), groups=48, bias=False)
        (2): Conv2d(48, 64, kernel_size=(1, 1), stride=(1, 1), bias=False)
        (3): BatchNorm2d(64, eps=1e-05, momentum=0.1, affine=True, track_running_stats=True)
      )
    )
    (6): SepConv(
      (op): Sequential(
        (0): ReLU()
        (1): Conv2d(64, 64, kernel_size=(3, 3), stride=(1, 1), padding=(1, 1), groups=64, bias=False)
        (2): Conv2d(64, 64, kernel_size=(1, 1), stride=(1, 1), bias=False)
        (3): BatchNorm2d(64, eps=1e-05, momentum=0.1, affine=True, track_running_stats=True)
      )
    )
  )
  (global_pooling): AdaptiveAvgPool2d(output_size=1)
  (classifier): Linear(in_features=64, out_features=10, bias=True)
)
2024-03-27 09:12:32,002 #############################################################################
2024-03-27 09:12:32,002 Moving to Next Candidate Architecture...
2024-03-27 09:12:32,002 MODEL DETAILS
2024-03-27 09:12:32,002 Model Depth 7 Model Width 16
2024-03-27 09:12:32,002 Model Layers [0 0 0 0 0 0 0] Model Kernels [3 3 3 3 3 3 3]
2024-03-27 09:12:32,002 Total number of epochs 2
…
2024-03-27 09:12:44,358 Test Accuracy of    ma: 90% (2737/3026)
2024-03-27 09:12:44,358 Test Accuracy of    ya: 95% (2776/2912)
2024-03-27 09:12:44,358 Test Accuracy of    re: 90% (2736/3017)
2024-03-27 09:12:44,358 Test Accuracy of    wo: 93% (2873/3060)
2024-03-27 09:12:44,358 
Test Accuracy (Overall): 92.456667% (27737/30000)
2024-03-27 09:12:44,358 Candidate Train Acc 92.676666 Candidate Val Acc 92.456665
2024-03-27 09:12:44,358 Train Acc Diff 2.540001 Val Acc Diff 2.149994
2024-03-27 09:12:44,358 Highest Train Acc 92.676666 Highest Val Acc 92.456665
2024-03-27 09:12:44,412 NetworkMix(
  (stem): Sequential(
    (0): Conv2d(1, 4, kernel_size=(3, 3), stride=(1, 1), padding=(1, 1), bias=False)
    (1): BatchNorm2d(4, eps=1e-05, momentum=0.1, affine=True, track_running_stats=True)
  )
  (mixlayers): ModuleList(
    (0): SepConv(
      (op): Sequential(
        (0): ReLU()
        (1): Conv2d(4, 4, kernel_size=(3, 3), stride=(1, 1), padding=(1, 1), groups=4, bias=False)
        (2): Conv2d(4, 16, kernel_size=(1, 1), stride=(1, 1), bias=False)
        (3): BatchNorm2d(16, eps=1e-05, momentum=0.1, affine=True, track_running_stats=True)
      )
    )
    (1): SepConv(
      (op): Sequential(
        (0): ReLU()
        (1): Conv2d(16, 16, kernel_size=(3, 3), stride=(1, 1), padding=(1, 1), groups=16, bias=False)
        (2): Conv2d(16, 16, kernel_size=(1, 1), stride=(1, 1), bias=False)
        (3): BatchNorm2d(16, eps=1e-05, momentum=0.1, affine=True, track_running_stats=True)
      )
    )
    (2): SepConv(
      (op): Sequential(
        (0): ReLU()
        (1): Conv2d(16, 16, kernel_size=(3, 3), stride=(2, 2), padding=(1, 1), groups=16, bias=False)
        (2): Conv2d(16, 32, kernel_size=(1, 1), stride=(1, 1), bias=False)
        (3): BatchNorm2d(32, eps=1e-05, momentum=0.1, affine=True, track_running_stats=True)
      )
    )
    (3): SepConv(
      (op): Sequential(
        (0): ReLU()
        (1): Conv2d(32, 32, kernel_size=(3, 3), stride=(1, 1), padding=(1, 1), groups=32, bias=False)
        (2): Conv2d(32, 32, kernel_size=(1, 1), stride=(1, 1), bias=False)
        (3): BatchNorm2d(32, eps=1e-05, momentum=0.1, affine=True, track_running_stats=True)
      )
    )
    (4): SepConv(
      (op): Sequential(
        (0): ReLU()
        (1): Conv2d(32, 32, kernel_size=(3, 3), stride=(2, 2), padding=(1, 1), groups=32, bias=False)
        (2): Conv2d(32, 48, kernel_size=(1, 1), stride=(1, 1), bias=False)
        (3): BatchNorm2d(48, eps=1e-05, momentum=0.1, affine=True, track_running_stats=True)
      )
    )
    (5): SepConv(
      (op): Sequential(
        (0): ReLU()
        (1): Conv2d(48, 48, kernel_size=(3, 3), stride=(1, 1), padding=(1, 1), groups=48, bias=False)
        (2): Conv2d(48, 48, kernel_size=(1, 1), stride=(1, 1), bias=False)
        (3): BatchNorm2d(48, eps=1e-05, momentum=0.1, affine=True, track_running_stats=True)
      )
    )
    (6): SepConv(
      (op): Sequential(
        (0): ReLU()
        (1): Conv2d(48, 48, kernel_size=(3, 3), stride=(2, 2), padding=(1, 1), groups=48, bias=False)
        (2): Conv2d(48, 64, kernel_size=(1, 1), stride=(1, 1), bias=False)
        (3): BatchNorm2d(64, eps=1e-05, momentum=0.1, affine=True, track_running_stats=True)
      )
    )
    (7): SepConv(
      (op): Sequential(
        (0): ReLU()
        (1): Conv2d(64, 64, kernel_size=(3, 3), stride=(1, 1), padding=(1, 1), groups=64, bias=False)
        (2): Conv2d(64, 64, kernel_size=(1, 1), stride=(1, 1), bias=False)
        (3): BatchNorm2d(64, eps=1e-05, momentum=0.1, affine=True, track_running_stats=True)
      )
    )
  )
  (global_pooling): AdaptiveAvgPool2d(output_size=1)
  (classifier): Linear(in_features=64, out_features=10, bias=True)
)
2024-03-27 09:12:44,413 #############################################################################
2024-03-27 09:12:44,413 Moving to Next Candidate Architecture...
2024-03-27 09:12:44,413 MODEL DETAILS
2024-03-27 09:12:44,413 Model Depth 8 Model Width 16
2024-03-27 09:12:44,413 Model Layers [0 0 0 0 0 0 0 0] Model Kernels [3 3 3 3 3 3 3 3]
2024-03-27 09:12:44,413 Total number of epochs 2
…
2024-03-27 09:17:13,430 Test Accuracy of    ya: 98% (2875/2912)
2024-03-27 09:17:13,430 Test Accuracy of    re: 97% (2954/3017)
2024-03-27 09:17:13,430 Test Accuracy of    wo: 98% (3017/3060)
2024-03-27 09:17:13,430 
Test Accuracy (Overall): 98.140000% (29442/30000)
2024-03-27 09:17:13,431 Candidate Train Acc 99.570000 Candidate Val Acc 98.139999
2024-03-27 09:17:13,431 Increasing CHANNELS in WIDTH block...
2024-03-27 09:17:13,431 Highest Train Acc 99.190002 Highest Val Acc 98.093338
2024-03-27 09:17:13,431 Train Acc Diff 0.379997 Val Acc Diff 0.046661
2024-03-27 09:17:13,438 NetworkMix(
  (stem): Sequential(
    (0): Conv2d(1, 5, kernel_size=(3, 3), stride=(1, 1), padding=(1, 1), bias=False)
    (1): BatchNorm2d(5, eps=1e-05, momentum=0.1, affine=True, track_running_stats=True)
  )
  (mixlayers): ModuleList(
    (0): SepConv(
      (op): Sequential(
        (0): ReLU()
        (1): Conv2d(5, 5, kernel_size=(3, 3), stride=(1, 1), padding=(1, 1), groups=5, bias=False)
        (2): Conv2d(5, 20, kernel_size=(1, 1), stride=(1, 1), bias=False)
        (3): BatchNorm2d(20, eps=1e-05, momentum=0.1, affine=True, track_running_stats=True)
      )
    )
    (1-2): 2 x SepConv(
      (op): Sequential(
        (0): ReLU()
        (1): Conv2d(20, 20, kernel_size=(3, 3), stride=(1, 1), padding=(1, 1), groups=20, bias=False)
        (2): Conv2d(20, 20, kernel_size=(1, 1), stride=(1, 1), bias=False)
        (3): BatchNorm2d(20, eps=1e-05, momentum=0.1, affine=True, track_running_stats=True)
      )
    )
    (3): SepConv(
      (op): Sequential(
        (0): ReLU()
        (1): Conv2d(20, 20, kernel_size=(3, 3), stride=(2, 2), padding=(1, 1), groups=20, bias=False)
        (2): Conv2d(20, 40, kernel_size=(1, 1), stride=(1, 1), bias=False)
        (3): BatchNorm2d(40, eps=1e-05, momentum=0.1, affine=True, track_running_stats=True)
      )
    )
    (4-5): 2 x SepConv(
      (op): Sequential(
        (0): ReLU()
        (1): Conv2d(40, 40, kernel_size=(3, 3), stride=(1, 1), padding=(1, 1), groups=40, bias=False)
        (2): Conv2d(40, 40, kernel_size=(1, 1), stride=(1, 1), bias=False)
        (3): BatchNorm2d(40, eps=1e-05, momentum=0.1, affine=True, track_running_stats=True)
      )
    )
    (6): SepConv(
      (op): Sequential(
        (0): ReLU()
        (1): Conv2d(40, 40, kernel_size=(3, 3), stride=(2, 2), padding=(1, 1), groups=40, bias=False)
        (2): Conv2d(40, 60, kernel_size=(1, 1), stride=(1, 1), bias=False)
        (3): BatchNorm2d(60, eps=1e-05, momentum=0.1, affine=True, track_running_stats=True)
      )
    )
    (7-8): 2 x SepConv(
      (op): Sequential(
        (0): ReLU()
        (1): Conv2d(60, 60, kernel_size=(3, 3), stride=(1, 1), padding=(1, 1), groups=60, bias=False)
        (2): Conv2d(60, 60, kernel_size=(1, 1), stride=(1, 1), bias=False)
        (3): BatchNorm2d(60, eps=1e-05, momentum=0.1, affine=True, track_running_stats=True)
      )
    )
    (9): SepConv(
      (op): Sequential(
        (0): ReLU()
        (1): Conv2d(60, 60, kernel_size=(3, 3), stride=(2, 2), padding=(1, 1), groups=60, bias=False)
        (2): Conv2d(60, 80, kernel_size=(1, 1), stride=(1, 1), bias=False)
        (3): BatchNorm2d(80, eps=1e-05, momentum=0.1, affine=True, track_running_stats=True)
      )
    )
    (10-12): 3 x SepConv(
      (op): Sequential(
        (0): ReLU()
        (1): Conv2d(80, 80, kernel_size=(3, 3), stride=(1, 1), padding=(1, 1), groups=80, bias=False)
        (2): Conv2d(80, 80, kernel_size=(1, 1), stride=(1, 1), bias=False)
        (3): BatchNorm2d(80, eps=1e-05, momentum=0.1, affine=True, track_running_stats=True)
      )
    )
  )
  (global_pooling): AdaptiveAvgPool2d(output_size=1)
  (classifier): Linear(in_features=80, out_features=10, bias=True)
)
2024-03-27 09:17:13,439 #############################################################################
2024-03-27 09:17:13,439 Moving to Next Candidate Architecture...
2024-03-27 09:17:13,439 MODEL DETAILS
2024-03-27 09:17:13,439 Model Depth 13 Model Width 20
2024-03-27 09:17:13,439 Model Layers [0 0 0 0 0 0 0 0 0 0 0 0 0] Model Kernels [3 3 3 3 3 3 3 3 3 3 3 3 3]
…
2024-03-27 09:23:00,478 Test Accuracy of    ya: 98% (2873/2912)
2024-03-27 09:23:00,478 Test Accuracy of    re: 98% (2981/3017)
2024-03-27 09:23:00,479 Test Accuracy of    wo: 98% (3023/3060)
2024-03-27 09:23:00,479 
Test Accuracy (Overall): 98.410000% (29523/30000)
2024-03-27 09:23:00,479 Candidate Train Acc 99.946671 Candidate Val Acc 98.410004
2024-03-27 09:23:00,479 Increasing CHANNELS in WIDTH block...
2024-03-27 09:23:00,479 Highest Train Acc 99.853333 Highest Val Acc 98.536667
2024-03-27 09:23:00,479 Train Acc Diff 0.093338 Val Acc Diff -0.126663
2024-03-27 09:23:00,487 NetworkMix(
  (stem): Sequential(
    (0): Conv2d(1, 6, kernel_size=(3, 3), stride=(1, 1), padding=(1, 1), bias=False)
    (1): BatchNorm2d(6, eps=1e-05, momentum=0.1, affine=True, track_running_stats=True)
  )
  (mixlayers): ModuleList(
    (0): SepConv(
      (op): Sequential(
        (0): ReLU()
        (1): Conv2d(6, 6, kernel_size=(3, 3), stride=(1, 1), padding=(1, 1), groups=6, bias=False)
        (2): Conv2d(6, 24, kernel_size=(1, 1), stride=(1, 1), bias=False)
        (3): BatchNorm2d(24, eps=1e-05, momentum=0.1, affine=True, track_running_stats=True)
      )
    )
    (1-2): 2 x SepConv(
      (op): Sequential(
        (0): ReLU()
        (1): Conv2d(24, 24, kernel_size=(3, 3), stride=(1, 1), padding=(1, 1), groups=24, bias=False)
        (2): Conv2d(24, 24, kernel_size=(1, 1), stride=(1, 1), bias=False)
        (3): BatchNorm2d(24, eps=1e-05, momentum=0.1, affine=True, track_running_stats=True)
      )
    )
    (3): SepConv(
      (op): Sequential(
        (0): ReLU()
        (1): Conv2d(24, 24, kernel_size=(3, 3), stride=(2, 2), padding=(1, 1), groups=24, bias=False)
        (2): Conv2d(24, 48, kernel_size=(1, 1), stride=(1, 1), bias=False)
        (3): BatchNorm2d(48, eps=1e-05, momentum=0.1, affine=True, track_running_stats=True)
      )
    )
    (4-6): 3 x SepConv(
      (op): Sequential(
        (0): ReLU()
        (1): Conv2d(48, 48, kernel_size=(3, 3), stride=(1, 1), padding=(1, 1), groups=48, bias=False)
        (2): Conv2d(48, 48, kernel_size=(1, 1), stride=(1, 1), bias=False)
        (3): BatchNorm2d(48, eps=1e-05, momentum=0.1, affine=True, track_running_stats=True)
      )
    )
    (7): SepConv(
      (op): Sequential(
        (0): ReLU()
        (1): Conv2d(48, 48, kernel_size=(3, 3), stride=(2, 2), padding=(1, 1), groups=48, bias=False)
        (2): Conv2d(48, 72, kernel_size=(1, 1), stride=(1, 1), bias=False)
        (3): BatchNorm2d(72, eps=1e-05, momentum=0.1, affine=True, track_running_stats=True)
      )
    )
    (8-10): 3 x SepConv(
      (op): Sequential(
        (0): ReLU()
        (1): Conv2d(72, 72, kernel_size=(3, 3), stride=(1, 1), padding=(1, 1), groups=72, bias=False)
        (2): Conv2d(72, 72, kernel_size=(1, 1), stride=(1, 1), bias=False)
        (3): BatchNorm2d(72, eps=1e-05, momentum=0.1, affine=True, track_running_stats=True)
      )
    )
    (11): SepConv(
      (op): Sequential(
        (0): ReLU()
        (1): Conv2d(72, 72, kernel_size=(3, 3), stride=(2, 2), padding=(1, 1), groups=72, bias=False)
        (2): Conv2d(72, 96, kernel_size=(1, 1), stride=(1, 1), bias=False)
        (3): BatchNorm2d(96, eps=1e-05, momentum=0.1, affine=True, track_running_stats=True)
      )
    )
    (12-14): 3 x SepConv(
      (op): Sequential(
        (0): ReLU()
        (1): Conv2d(96, 96, kernel_size=(3, 3), stride=(1, 1), padding=(1, 1), groups=96, bias=False)
        (2): Conv2d(96, 96, kernel_size=(1, 1), stride=(1, 1), bias=False)
        (3): BatchNorm2d(96, eps=1e-05, momentum=0.1, affine=True, track_running_stats=True)
      )
    )
  )
  (global_pooling): AdaptiveAvgPool2d(output_size=1)
  (classifier): Linear(in_features=96, out_features=10, bias=True)
)
2024-03-27 09:23:00,488 #############################################################################
2024-03-27 09:23:00,488 Moving to Next Candidate Architecture...
2024-03-27 09:23:00,488 MODEL DETAILS
2024-03-27 09:23:00,488 Model Depth 15 Model Width 24
2024-03-27 09:23:00,488 Model Layers [0 0 0 0 0 0 0 0 0 0 0 0 0 0 0] Model Kernels [3 3 3 3 3 3 3 3 3 3 3 3 3 3 3]
…
2024-03-27 09:24:19,349 Train Acc Diff 0.133339 Val Acc Diff 0.156670
2024-03-27 09:24:19,349 Highest Train Acc 99.986671 Highest Val Acc 98.693336
2024-03-27 09:24:19,349 Discovered Final Depth 15
2024-03-27 09:24:19,349 Epochs so far 9
2024-03-27 09:24:19,349 END OF DEPTH SEARCH...
2024-03-27 09:24:19,349 #############################################################################
2024-03-27 09:24:19,349 #############################################################################
2024-03-27 09:24:19,349 
2024-03-27 09:24:19,349 RUNNING WIDTH SEARCH NOW...
2024-03-27 09:24:19,357 NetworkMix(
  (stem): Sequential(
    (0): Conv2d(1, 5, kernel_size=(3, 3), stride=(1, 1), padding=(1, 1), bias=False)
    (1): BatchNorm2d(5, eps=1e-05, momentum=0.1, affine=True, track_running_stats=True)
  )
  (mixlayers): ModuleList(
    (0): SepConv(
      (op): Sequential(
        (0): ReLU()
        (1): Conv2d(5, 5, kernel_size=(3, 3), stride=(1, 1), padding=(1, 1), groups=5, bias=False)
        (2): Conv2d(5, 22, kernel_size=(1, 1), stride=(1, 1), bias=False)
        (3): BatchNorm2d(22, eps=1e-05, momentum=0.1, affine=True, track_running_stats=True)
      )
    )
    (1-2): 2 x SepConv(
      (op): Sequential(
        (0): ReLU()
        (1): Conv2d(22, 22, kernel_size=(3, 3), stride=(1, 1), padding=(1, 1), groups=22, bias=False)
        (2): Conv2d(22, 22, kernel_size=(1, 1), stride=(1, 1), bias=False)
        (3): BatchNorm2d(22, eps=1e-05, momentum=0.1, affine=True, track_running_stats=True)
      )
    )
    (3): SepConv(
      (op): Sequential(
        (0): ReLU()
        (1): Conv2d(22, 22, kernel_size=(3, 3), stride=(2, 2), padding=(1, 1), groups=22, bias=False)
        (2): Conv2d(22, 44, kernel_size=(1, 1), stride=(1, 1), bias=False)
        (3): BatchNorm2d(44, eps=1e-05, momentum=0.1, affine=True, track_running_stats=True)
      )
    )
    (4-6): 3 x SepConv(
      (op): Sequential(
        (0): ReLU()
        (1): Conv2d(44, 44, kernel_size=(3, 3), stride=(1, 1), padding=(1, 1), groups=44, bias=False)
        (2): Conv2d(44, 44, kernel_size=(1, 1), stride=(1, 1), bias=False)
        (3): BatchNorm2d(44, eps=1e-05, momentum=0.1, affine=True, track_running_stats=True)
      )
    )
    (7): SepConv(
      (op): Sequential(
        (0): ReLU()
        (1): Conv2d(44, 44, kernel_size=(3, 3), stride=(2, 2), padding=(1, 1), groups=44, bias=False)
        (2): Conv2d(44, 66, kernel_size=(1, 1), stride=(1, 1), bias=False)
        (3): BatchNorm2d(66, eps=1e-05, momentum=0.1, affine=True, track_running_stats=True)
      )
    )
    (8-10): 3 x SepConv(
      (op): Sequential(
        (0): ReLU()
        (1): Conv2d(66, 66, kernel_size=(3, 3), stride=(1, 1), padding=(1, 1), groups=66, bias=False)
        (2): Conv2d(66, 66, kernel_size=(1, 1), stride=(1, 1), bias=False)
        (3): BatchNorm2d(66, eps=1e-05, momentum=0.1, affine=True, track_running_stats=True)
      )
    )
    (11): SepConv(
      (op): Sequential(
        (0): ReLU()
        (1): Conv2d(66, 66, kernel_size=(3, 3), stride=(2, 2), padding=(1, 1), groups=66, bias=False)
        (2): Conv2d(66, 88, kernel_size=(1, 1), stride=(1, 1), bias=False)
        (3): BatchNorm2d(88, eps=1e-05, momentum=0.1, affine=True, track_running_stats=True)
      )
    )
    (12-14): 3 x SepConv(
      (op): Sequential(
        (0): ReLU()
        (1): Conv2d(88, 88, kernel_size=(3, 3), stride=(1, 1), padding=(1, 1), groups=88, bias=False)
        (2): Conv2d(88, 88, kernel_size=(1, 1), stride=(1, 1), bias=False)
        (3): BatchNorm2d(88, eps=1e-05, momentum=0.1, affine=True, track_running_stats=True)
      )
    )
  )
  (global_pooling): AdaptiveAvgPool2d(output_size=1)
  (classifier): Linear(in_features=88, out_features=10, bias=True)
)
2024-03-27 09:24:19,357 Moving to Next Candidate Architecture...
2024-03-27 09:24:19,357 MODEL DETAILS
2024-03-27 09:24:19,358 Model Depth 15 Model Width 22
2024-03-27 09:24:19,358 Model Layers [0 0 0 0 0 0 0 0 0 0 0 0 0 0 0] Model Kernels [3 3 3 3 3 3 3 3 3 3 3 3 3 3 3]
2024-03-27 09:24:19,358 Total number of epochs 12.000000
2024-03-27 09:24:19,359 Model Parameters = 0.062502MB
…
2024-03-27 09:28:01,064 Test Accuracy of    ma: 98% (2977/3026)
2024-03-27 09:28:01,064 Test Accuracy of    ya: 99% (2883/2912)
2024-03-27 09:28:01,064 Test Accuracy of    re: 98% (2975/3017)
2024-03-27 09:28:01,064 Test Accuracy of    wo: 98% (3020/3060)
2024-03-27 09:28:01,065 
Test Accuracy (Overall): 98.686667% (29606/30000)
2024-03-27 09:28:01,065 Candidate Train Acc 100.000000 Candidate Val Acc 98.686668
2024-03-27 09:28:01,065 Train Acc Diff 0.000000 Val Acc Diff -0.073334
2024-03-27 09:28:01,065 Highest Train Acc 100.000000 Highest Val Acc 98.760002
2024-03-27 09:28:01,072 NetworkMix(
  (stem): Sequential(
    (0): Conv2d(1, 4, kernel_size=(3, 3), stride=(1, 1), padding=(1, 1), bias=False)
    (1): BatchNorm2d(4, eps=1e-05, momentum=0.1, affine=True, track_running_stats=True)
  )
  (mixlayers): ModuleList(
    (0): SepConv(
      (op): Sequential(
        (0): ReLU()
        (1): Conv2d(4, 4, kernel_size=(3, 3), stride=(1, 1), padding=(1, 1), groups=4, bias=False)
        (2): Conv2d(4, 18, kernel_size=(1, 1), stride=(1, 1), bias=False)
        (3): BatchNorm2d(18, eps=1e-05, momentum=0.1, affine=True, track_running_stats=True)
      )
    )
    (1-2): 2 x SepConv(
      (op): Sequential(
        (0): ReLU()
        (1): Conv2d(18, 18, kernel_size=(3, 3), stride=(1, 1), padding=(1, 1), groups=18, bias=False)
        (2): Conv2d(18, 18, kernel_size=(1, 1), stride=(1, 1), bias=False)
        (3): BatchNorm2d(18, eps=1e-05, momentum=0.1, affine=True, track_running_stats=True)
      )
    )
    (3): SepConv(
      (op): Sequential(
        (0): ReLU()
        (1): Conv2d(18, 18, kernel_size=(3, 3), stride=(2, 2), padding=(1, 1), groups=18, bias=False)
        (2): Conv2d(18, 36, kernel_size=(1, 1), stride=(1, 1), bias=False)
        (3): BatchNorm2d(36, eps=1e-05, momentum=0.1, affine=True, track_running_stats=True)
      )
    )
    (4-6): 3 x SepConv(
      (op): Sequential(
        (0): ReLU()
        (1): Conv2d(36, 36, kernel_size=(3, 3), stride=(1, 1), padding=(1, 1), groups=36, bias=False)
        (2): Conv2d(36, 36, kernel_size=(1, 1), stride=(1, 1), bias=False)
        (3): BatchNorm2d(36, eps=1e-05, momentum=0.1, affine=True, track_running_stats=True)
      )
    )
    (7): SepConv(
      (op): Sequential(
        (0): ReLU()
        (1): Conv2d(36, 36, kernel_size=(3, 3), stride=(2, 2), padding=(1, 1), groups=36, bias=False)
        (2): Conv2d(36, 54, kernel_size=(1, 1), stride=(1, 1), bias=False)
        (3): BatchNorm2d(54, eps=1e-05, momentum=0.1, affine=True, track_running_stats=True)
      )
    )
    (8-10): 3 x SepConv(
      (op): Sequential(
        (0): ReLU()
        (1): Conv2d(54, 54, kernel_size=(3, 3), stride=(1, 1), padding=(1, 1), groups=54, bias=False)
        (2): Conv2d(54, 54, kernel_size=(1, 1), stride=(1, 1), bias=False)
        (3): BatchNorm2d(54, eps=1e-05, momentum=0.1, affine=True, track_running_stats=True)
      )
    )
    (11): SepConv(
      (op): Sequential(
        (0): ReLU()
        (1): Conv2d(54, 54, kernel_size=(3, 3), stride=(2, 2), padding=(1, 1), groups=54, bias=False)
        (2): Conv2d(54, 72, kernel_size=(1, 1), stride=(1, 1), bias=False)
        (3): BatchNorm2d(72, eps=1e-05, momentum=0.1, affine=True, track_running_stats=True)
      )
    )
    (12-14): 3 x SepConv(
      (op): Sequential(
        (0): ReLU()
        (1): Conv2d(72, 72, kernel_size=(3, 3), stride=(1, 1), padding=(1, 1), groups=72, bias=False)
        (2): Conv2d(72, 72, kernel_size=(1, 1), stride=(1, 1), bias=False)
        (3): BatchNorm2d(72, eps=1e-05, momentum=0.1, affine=True, track_running_stats=True)
      )
    )
  )
  (global_pooling): AdaptiveAvgPool2d(output_size=1)
  (classifier): Linear(in_features=72, out_features=10, bias=True)
)
2024-03-27 09:28:01,073 Moving to Next Candidate Architecture...
2024-03-27 09:28:01,073 MODEL DETAILS
2024-03-27 09:28:01,073 Model Depth 15 Model Width 18
2024-03-27 09:28:01,073 Model Layers [0 0 0 0 0 0 0 0 0 0 0 0 0 0 0] Model Kernels [3 3 3 3 3 3 3 3 3 3 3 3 3 3 3]
2024-03-27 09:28:01,074 Total number of epochs 18.000000
2024-03-27 09:28:01,074 Model Parameters = 0.043272MB
…
